body_detection_model.tflite (tflite, 87624 bytes, 6 tensors)

arith.constant f4 [5, 64]
00000000: 8e9a dfbc 6117 203e 23bd 8ebd 1457 4fbe
00000010: 9809 65bd efef 44be 8614 88be 26c3 113e
00000020: 4931 02be f47a 3abe 4199 853e 512b 263e
00000030: ee77 ff3d 329b 04be 536c c0bd a42c 0cbe
00000040: d1cd dfbd 88aa 83be b878 8c3e 1920 dbbc
00000050: ff53 923e 6f67 11be 3f41 41be 5729 823e
00000060: 0672 9b3d b5d3 523e a931 8abe 6873 5abe
00000070: 3ef2 9bbc 318f 20be 1210 00be ae8b 89be
00000080: 41bd 123e b993 64be c9d8 50be 95bf 433e
00000090: 01bb 213e 601b 263e 5583 36be 169f f6bb
000000a0: 8d3a 2fbd 0b95 2dbd 48fa 02be 0462 123e
000000b0: 4adc 9d3d 4141 90be 2624 973d 5f97 47bd
000000c0: e5ed 5f3d d522 e43d e1af 0d3e 568d 943e
000000d0: 4c00 963b 2d9e 133e 73de 943e 801d 16be
000000e0: 753e dcbc 88aa 093e 9012 173e 9ce9 623e
000000f0: c15f 283c c127 61be 8578 323e 8117 a5bd
00000100: b673 7c3d f452 6e3e 51a1 88be f90e 333e
00000110: f151 64bb c02d 60be 9151 1f3e c971 853d
00000120: 2dde ea3c d261 b5bd b0cc 053e 1cae 923d
00000130: 82f3 8c3c 2757 e83c e3f6 82be b88f aebd
00000140: eabc 5d3e 700f df3d 66e3 d5bb dbc8 c53d
00000150: 13e7 4f3e 40bb c3bd 2f39 673e a2bf 05be
00000160: c351 343e 720a 4bbc 0ae3 36be 9725 433e
00000170: d3ed fd3c 1b4a 363e f9b9 4f3e f2f9 51be
00000180: 81e1 29be a42f 96be f957 833e 9802 3b3e
00000190: 51e9 4c3d 01f9 da3d 48ac 0cbe b481 553c
000001a0: e190 3fbe 12a3 19bd c2db d43d 6139 c4bd
000001b0: 3636 283e 3370 a43d d08d 3d3e ebee 34be
000001c0: a7c7 debd 5ea4 d8bc 8052 4cbe c47b d4bd
000001d0: 86bc f0ba 5bff b13d 8431 af3d a9af 323e
000001e0: 1540 0dbd a3c7 1a3e 489a 96bd 7e21 ba3d
000001f0: 678c 6abe 7c1d 863e 90ba 6b3d d9c1 45be
00000200: 7884 1abe 915f 83be 48ba 033e bf4c 633e
00000210: 933d 453b f50f 663e cfb8 82be b9b7 adbc
00000220: e517 993d 2409 623e d006 7ebe 8736 813e
00000230: 3076 7b3e ee1c f7bd 2b76 7bbe 1753 093e
00000240: 6132 febd 2b00 9ebe 24f4 24be 4e92 94be
00000250: 6b18 b23d 4725 08bd d306 8c3e 9628 5c3e
00000260: fb06 5dbe 82de 37be b2d9 3a3e 9470 a73d
00000270: 6287 633e c066 ec3d 9653 28bd af4c 90bd
00000280: 23c3 3cbe 7dc4 93be a819 093e 48ab a23d
00000290: 1094 a4bd 6a1b 453e 2c77 65bd d524 c93c
000002a0: d733 583e 6d41 6ebd adfa 00be 61d3 0ebe
000002b0: 17d5 66be 8a7d d13c aca9 a8bd e05a bdbd
000002c0: 2867 a53c 9e66 86be acc8 7c3c 80a6 0b3a
000002d0: b044 93bd d724 8a3d 2091 c93d 8310 1c3e
000002e0: 7743 1e3e acde 523c 0699 0f3d e091 53be
000002f0: 7a8d 20be a6f5 e8bb af63 90be 2c3b 553e
00000300: 1f83 fd3d 6929 4abe 8273 61bd 87bd 8a3d
00000310: aebd 533e 80b0 553c 7d1c e7bd f648 90bc
00000320: 4a00 a33c 982e 47be fdf9 e0bd 6c03 e0bd
00000330: 0c63 543d 6d74 883c b9ae 37be 0d01 443e
00000340: 0680 80be 18eb 04be 5ac1 5c3e 29d7 18be
00000350: 78a9 c8bd 2f25 8c3c 67de 263e 53e2 003e
00000360: cd65 4b3e 9151 4abe 1d14 f2bd 0c67 67be
00000370: b8e8 8abe 9ad4 15be 0c8f cebd 557d 043e
00000380: 09aa 443e 670a 263d 09a6 72be cb20 30be
00000390: 46ff e0bd 2ecd 92be 4218 923e 0f04 1cbe
000003a0: d6c2 20be 58c1 d43d f02b 5d3e fc2b 043e
000003b0: bec4 b03d 32b1 973e 94ef 443e b28c 54be
000003c0: 922b d13d 443e 81bc 27c8 8d3c 9806 5abe
000003d0: 5bde 79be d87b 6d3e 4757 f83d 2030 483e
000003e0: 57b5 333e 37f4 4abe 2f02 a93d 8ab9 643e
000003f0: 7edb e7bd 59ae 44bd 80d2 653e c534 9bbe
-0.027295377 0.15633918 -0.06969669 -0.20248061 -0.055917352 -0.19232152 -0.26578158 0.142346
-0.12714113 -0.18210965 0.26093486 0.16227461 0.12474047 -0.12949827 -0.09395661 -0.13688904
-0.10927928 -0.25716043 0.2743585 -0.026748704 0.2857971 -0.14199613 -0.18872546 0.25422165
0.075901076 0.20588572 -0.26991013 -0.21333086 -0.019036409 -0.15679623 -0.1250613 -0.2686438
0.14330007 -0.22321977 -0.20395197 0.19116051 0.15793993 0.1622138 -0.17823537 -0.0075262887
-0.042780448 -0.042378467 -0.12790787 0.14295202 0.077080324 -0.28174785 0.07379942 -0.048728343
0.054670233 0.11139456 0.13836624 0.2901408 0.004577672 0.14415808 0.29075965 -0.14659691
-0.02688525 0.13443959 0.14753175 0.22159427 0.010276736 -0.21987821 0.17428787 -0.08061124
0.061633788 0.23273832 -0.26685575 0.1748618 -0.003483888 -0.21892452 0.15558459 0.065158434
0.028670395 -0.08856548 0.13066363 0.07162115 0.017205957 0.02836187 -0.25578985 -0.08523506
0.21654096 0.10891616 -0.006527352 0.09657451 0.20302992 -0.095571995 0.22580408 -0.13061383
0.17609315 -0.012392627 -0.17860046 0.19057308 0.030997192 0.17801706 0.20285787 -0.20505503
-0.16589929 -0.29333222 0.25653055 0.18262708 0.050027195 0.10692025 -0.13737595 0.013031412
-0.1870761 -0.03750903 0.10393478 -0.09581257 0.1642693 0.08029213 0.18511128 -0.17669265
-0.108779244 -0.026445564 -0.19953346 -0.10375169 -0.0018366731 0.08691283 0.08554366 0.17449822
-0.03448494 0.15115218 -0.073536456 0.090884194 -0.22905122 0.2619437 0.057550967 -0.19312228
-0.15089595 -0.2565885 0.1286403 0.22197245 0.0030096516 0.22467025 -0.25531623 -0.02120577
0.07475261 0.220738 -0.24807286 0.25236914 0.24556804 -0.12066065 -0.24556796 0.13410603
-0.12411953 -0.30859503 -0.16108757 -0.29017872 0.086960636 -0.033238675 0.27348956 0.21499857
-0.21584694 -0.17955974 0.18247107 0.081757694 0.22219613 0.115430355 -0.04109534 -0.07045876
-0.18433814 -0.28860846 0.13388693 0.079428256 -0.08036053 0.19248739 -0.056021854 0.024553696
0.21113525 -0.058167864 -0.12595625 -0.13947822 -0.22542225 0.025572557 -0.08235487 -0.09245849
0.02019079 -0.26250166 0.015428703 0.00053272396 -0.071908355 0.06745308 0.098421335 0.15240674
0.15455423 0.012870472 0.035058044 -0.20661116 -0.15678969 -0.0071093617 -0.28201053 0.20823354
0.12378525 -0.19742359 -0.055041797 0.06774431 0.20677826 0.013042569 -0.112847306 -0.017612915
0.019897599 -0.19451368 -0.109851815 -0.10938153 0.05185227 0.016657079 -0.17937745 0.19141026
-0.25097674 -0.12980306 0.21558133 -0.14925827 -0.097979486 0.017107574 0.16295777 0.12586336
0.19863053 -0.19757678 -0.118202426 -0.22597903 -0.27130675 -0.14631882 -0.10085878 0.12938435
0.19205488 0.040537264 -0.2369615 -0.1720001 -0.109861895 -0.28672165 0.28534132 -0.15235923
-0.15699324 0.1038844 0.21598792 0.12907404 0.086312756 0.29627377 0.19232017 -0.20756796
0.102133885 -0.01577676 0.017307354 -0.21291578 -0.24401228 0.23191774 0.12126022 0.19549608
0.17549644 -0.19819723 0.082523696 0.22336403 -0.11321162 -0.048017833 0.2244358 -0.30313697

arith.constant1 f4 [64, 128]
00000000: b449 98bd 009b 383e 3b9c 213e 349c 8f3d
00000010: 3f47 0bbe a6d2 07be 2c81 1c3e 4179 17be
00000020: 0b5b 183c aebd b03c db54 88bd 8879 023e
00000030: 611e 923d 42b2 063e 3f7a 0cbc 2c96 f33b
00000040: 3806 cebc 5fa6 81bb b2b2 4b3e dfb7 c53d
00000050: 68f2 9c3d 7693 d1bd f30c 153e 10f0 113d
00000060: f57d 343e 6d71 9e3d d370 1b3e c11d 06be
00000070: e589 b93d 6bd0 65bd fc6e e93c 7978 fbbd
00000080: cc2b c7bd d495 71bd e21a 863c ec5d c13d
00000090: 02ab 0f3d a7a5 5abd 1cfd 09be 605f 933b
000000a0: 8339 bd3c 7071 f4bd 2702 a8bd 6a60 263c
000000b0: f40d 9ebd 2e5d 82bd e450 c33b 16a9 a4bc
000000c0: c27f b3bb d9c5 08be 647c b5bd 8786 2f3d
000000d0: 713e 40bd 0a06 9f3d db7f 503c 00a7 1b3e
000000e0: ffee 21be 5a57 243d 6c16 13be b6f8 2d3e
000000f0: be92 e0bc 6f68 cfbc ea77 9cbd b7f8 37bc
00000100: c8eb 70bd 41e0 88bc ef00 1a3e 3c64 78bd
00000110: c9e2 37be 16ba 1cbe ca3b 723b bbaf e2bd
00000120: 44d3 00be 01a1 493d 0bdc 223e 06f4 e7bd
00000130: e7ee 1dbe 15a2 8cbd 912b b9bd 3f2d 0cbe
00000140: 8296 94bc d74a 413d 5629 013e 3f46 c33c
00000150: 003a 313e 014b c6bd 83c7 113d 3502 e9bd
00000160: b8af 1fbe accd 74bd f7ee b3bd e24b 563d
00000170: fed4 5f3d bb02 3f3d f308 013d 4ead c5bd
00000180: ba7b b7bd 3e5c a4bd c54b ed3d 51ea e2bd
00000190: 6408 1a3e ba2b 0ebe 17ca a53c 3b6e 80bc
000001a0: 3c02 b63d d211 13be 131e 13bd 8ed3 2d3e
000001b0: 27fd 99bd 3a51 2d3e 2b1f f7bd 9e99 adbd
000001c0: a1f6 02be 6c38 b4bd 7725 e83d 471e 973d
000001d0: c249 9c3d 990f 1e3e 05d0 933c 0f9e e13d
000001e0: 5384 bf3d 1bd9 29be f64b 9cbd 2753 393e
000001f0: e7b2 33bd e595 9f3c cb5c 31be 154c 62bd
00000200: 2c4a a9bd faf7 233e 11b6 13be 5ad7 d33d
00000210: e0f9 833d 1b1d f5bc 7495 063e a6f4 03be
00000220: 7ee0 b33c 6111 15be 6bb6 f53d 00e9 d6bd
00000230: 4d07 423e a129 b1bd c7e8 6cbd faec acbc
00000240: bf27 e8bc 57e8 af3d ccfc a23d 73a4 bd3d
00000250: 652a 95bd efd5 b43d 870a a33d 9b1d 0e3e
00000260: 3cec 7d3d ebc3 993c b4da a9bd abb8 2fbe
00000270: 4a6e acbc efb1 febd 60ae 363e f843 363d
00000280: 939b 473d b01d 3e3e a746 c5bd 2488 c63a
00000290: 3181 3bbd 052b 84bd 2081 15be 801f 093b
000002a0: 347a 13bd 2340 043e b3e6 9f3d 0ce5 ed3d
000002b0: 14f9 c33b ab93 a33d b6fa 1f3e a2e3 bc3d
000002c0: cbe0 84bd 5bf8 e4bd cd9b fd3c 89a3 85bd
000002d0: 6234 acbd 8383 22be b3d9 5a3d e2ca f53d
000002e0: 8a7e 123e fb0a 24be 8b60 2dbe 3f41 d73d
000002f0: 1921 01be 8ee6 5f3d 6b3a cdbc 042e 98bd
00000300: fc11 a1bd c734 173e 4978 d2bd afa9 0c3e
00000310: d21c 83bc 1e4c aebd 37a3 21bd 01ad 2b3e
00000320: be4e 253e ba8f 8c3c 5102 a8bd 918b 0abe
00000330: 6cc4 ea3d e0e0 dbbd d793 983b 2dee 12be
00000340: 46d9 bbbd 6149 083e d9f0 a13d 9563 f1bd
00000350: 3a77 c1bc d008 79bd ab24 473e 08ff b73d
00000360: 6b4f 3c3b 8543 55bd 68a7 fbbd a77e 123e
00000370: 1069 4fbd d679 1c3e eb8c 1cbe f74d c33c
00000380: bcaa a7bc 395b d0bd 82d5 ac3c e641 f43d
00000390: 64f7 78bd 5cec 083e 3f04 3cbe d71e 123e
000003a0: c38c 1dbd 24d7 293e a20e 8dbd 95e1 16be
000003b0: 5359 17bd 688d 203d bee9 dfbd 2d1b acbd
000003c0: 4221 c5bd 304c 743d 4c5c 8e3d 7dc9 1c3d
000003d0: c55a c03d c29d 66bd 8ae8 cfbc 0c4b bb3d
000003e0: f2e0 87bd 9d7d 8cbd 145f 2b3e 7f38 173e
000003f0: 256e 263e a62c 033d 2a3a de3b c599 3e3d
-0.07435933 0.18027878 0.15782253 0.07012215 -0.13601397 -0.1326395 0.1528365 -0.14792348
0.00929905 0.021574821 -0.0665681 0.12741673 0.071347006 0.13153937 -0.008574068 0.0074336734
-0.02514945 -0.0039566006 0.19892386 0.09654211 0.07663423 -0.10233204 0.14555721 0.035629332
0.17626174 0.07736478 0.15179758 -0.13097288 0.090595044 -0.056106966 0.028495304 -0.12278838
-0.097251505 -0.058980778 0.01637024 0.09441742 0.035075195 -0.053380635 -0.1347546 0.0044974536
0.023098713 -0.11935699 -0.082035355 0.010154823 -0.07717505 -0.06365429 0.0059605706 -0.020100158
-0.0054778764 -0.13356723 -0.08861616 0.042852905 -0.04693455 0.07764824 0.012725796 0.15200424
-0.15813826 0.040122367 -0.14364022 0.16989407 -0.027413722 -0.025318353 -0.07640059 -0.011228732
-0.05881861 -0.016708495 0.15039419 -0.060642466 -0.17957605 -0.15305361 0.0036961907 -0.11068674
-0.12580591 0.04922581 0.15904252 -0.11325841 -0.15423165 -0.06866852 -0.09041513 -0.13689135
-0.018138174 0.047190513 0.12613425 0.023837207 0.17307281 -0.096822746 0.03559066 -0.11377374
-0.15594375 -0.059766456 -0.08785813 0.05231846 0.054646485 0.046633463 0.031502675 -0.09652196
-0.08959146 -0.08025406 0.115867175 -0.110798486 0.15042263 -0.13883868 0.020237966 -0.015677562
0.08887145 -0.14362267 -0.035917353 0.16975233 -0.07518988 0.16925517 -0.12066492 -0.08476566
-0.12789394 -0.08799824 0.11335271 0.07378822 0.07631256 0.15435638 0.018043527 0.110164754
0.09351411 -0.16586725 -0.07631676 0.18098126 -0.043871786 0.019480655 -0.17320554 -0.05524834
-0.082661 0.16012564 -0.14424922 0.103438094 0.06444144 -0.029921105 0.1314295 -0.12886295
0.021957632 -0.14557411 0.11997684 -0.1049366 0.18948098 -0.08650518 -0.05783918 -0.021109093
-0.028339265 0.08589237 0.079583734 0.09259882 -0.07283477 0.08829867 0.07960992 0.13878481
0.06199287 0.018770179 -0.082936674 -0.17160289 -0.021048684 -0.12436282 0.17839956 0.044498414
0.04873235 0.18566012 -0.096326165 0.0015146774 -0.045777503 -0.06453518 -0.14600039 0.0020923316
-0.036005214 0.12915091 0.07807674 0.11615953 0.00598062 0.0798715 0.15622982 0.09223105
-0.06488188 -0.111801825 0.03095808 -0.065253325 -0.08408429 -0.1587048 0.05343027 0.120015875
0.14306083 -0.16019814 -0.1693136 0.105104916 -0.12610282 0.054663233 -0.02505227 -0.07430652
-0.07864758 0.14766227 -0.10276849 0.13736604 -0.016004954 -0.08510612 -0.039462294 0.16765215
0.16143319 0.017158378 -0.08203567 -0.13529803 0.11463246 -0.10736251 0.0046562958 -0.1434867
-0.09172301 0.13309242 0.07907266 -0.11786572 -0.023616422 -0.06079942 0.19447581 0.0898419
0.002873386 -0.052066345 -0.122877896 0.14306127 -0.050637305 0.15280852 -0.15288131 0.023840887
-0.020467155 -0.10173649 0.021097902 0.11926632 -0.060782805 0.13371414 -0.18360995 0.14269577
-0.03846432 0.16585976 -0.068875566 -0.1473449 -0.03695042 0.039197356 -0.10933255 -0.08403621
-0.09625484 0.05964297 0.06951198 0.03827809 0.09392313 -0.056302793 -0.025379438 0.091451734
-0.06634702 -0.06859896 0.16735488 0.14767645 0.16252954 0.032025002 0.006781836 0.046533365

arith.constant2 f4 [5]
00000000: 3333 ce3b 3b53 3dbc ba3d 0abb 04d3 873c
00000010: 6ae2 1bbc
0.0062927245 -0.011555488 -0.002109392 0.016580112 -0.009514431

sequential_1/dense_1_2/BiasAdd/ReadVariableOp f4 [64]
00000000: cd22 043c 0afb 5d3b 470a 25bc db21 2b3b
00000010: 2368 14bc 8aac eb38 024a a1bc a0fa 413c
00000020: 41e2 e33b 3371 40bc 0b42 b93b 7887 933c
00000030: edd9 eabb 920e acb9 9579 4f3c 048e 683c
00000040: b152 56bc 9f40 f9bc 7023 683c 3634 d7bc
00000050: 5ae7 0ebc 728a 88bc 8564 e5bb f705 86bc
00000060: 0337 6c3c a382 0f3b e224 0dbc 219a 8abc
00000070: c270 49bb 5830 383b a7d0 7f3c 9bbc 7c3c
00000080: e478 d6bc 585a eabb 9b38 003c dce2 813b
00000090: f1d9 0bbc eee1 663b d4fd 0ebb 21c3 9ebc
000000a0: c3c7 533c 7624 3f3c f03c 30bb 9c2a 8b3c
000000b0: 1802 3ebc 3656 b53c 2113 d53c bb5b fbba
000000c0: d8b2 823c c833 3ebb eb97 dd3c 45e4 b1bb
000000d0: 48d6 5bbb 65dd 913c 3f4f ff3c ddea 5b3c
000000e0: 96bc 403c d9f0 b43c 431b be3c d607 163c
000000f0: b6e8 ddbb 84e2 48b9 8073 b33c 7e40 dcba
0.008064938 0.0033871555 -0.010073251 0.0026112709 -0.009058031 0.00011237811 -0.01968861 0.011839539
0.006954462 -0.011745739 0.005653625 0.018008932 -0.007167092 -0.00032817252 0.012663265 0.014194015
-0.013081239 -0.030426322 0.014168605 -0.026270013 -0.008722151 -0.016667578 -0.0070005083 -0.016360266
0.014417413 0.0021897934 -0.008614751 -0.016919198 -0.0030737375 0.0028104987 0.015613711 0.015425826
-0.026180692 -0.007151883 0.007825996 0.0039638113 -0.008535848 0.003522988 -0.0021818774 -0.019380154
0.012926045 0.011666408 -0.002689179 0.016988091 -0.011597179 0.022135835 0.026010098 -0.0019177118
0.01595442 -0.0029022563 0.02704998 -0.005428823 -0.003354447 0.017805764 0.031165717 0.013422695
0.011763712 0.022087501 0.023206359 0.009157142 -0.006772126 -0.0001915787 0.02190566 -0.0016803888

sequential_1/dense_1/BiasAdd/ReadVariableOp f4 [128]
00000000: c750 1f3c 3562 7cbc 235b ed3a 0000 0000
00000010: e8b0 43bc a254 c13b 8ec0 c0b9 545a 373c
00000020: d1da d9bb f765 2fbc 20b3 fbba bdec 2fbc
00000030: d841 b93b 67e3 cd3b 6285 4a3b e4ed 69ba
00000040: eb7a 62bc d42f c63b 5a1b 103b b2b6 d5bb
00000050: de6a 6cba ae26 00bc 9264 d43a 9c33 52bc
00000060: d2a1 303c 2b6f 29bc 6754 e9bb a2f0 33bc
00000070: b06e ac3a a824 103c 9ba7 e93a 4024 82bc
00000080: f749 50bb a161 f33b 3423 4f3c 3452 00bb
00000090: 3d5c 23ba bbb8 743c 9bba e3bb 0000 0000
000000a0: ba86 af3b da9d 4ebc 98b7 37bb 5e4b a03b
000000b0: dcf4 69bb 4104 34bc 35b5 b33a 99ab d6bb
000000c0: 5244 50bc 804e a337 310f a63b fdeb 8e3b
000000d0: a264 493a a117 2e3c 0aa3 013c be55 863b
000000e0: 1fb5 3ebc a063 40bc 35a8 223b 497d a539
000000f0: dffc 2ebc b043 2fb9 1688 aebb 2257 4abb
00000100: 10a5 55bb 1b79 68bb 00d5 b2bb bb73 1c3c
00000110: c2b3 18bc 2eac b039 f4cc 41bc 4fd6 50bb
00000120: 5819 5c3c d41f a5bc 337d e6bb 45c9 d63b
00000130: ba52 2c3b 9976 c9bb 8c9c 93bc 504f feb8
00000140: 465b 83bb 033d 503b 5df1 25bc 82ac c7bb
00000150: 2043 bcbb d181 bcbc b885 b33c d475 4dbc
00000160: 1885 bf3b e202 28bb 1374 263b 1240 97bc
00000170: a9ee b1bb d494 60bc d7e9 1dbb 92d4 a93a
00000180: a0dd b4ba 527f 3c3b 7bbd d0bb 785a 47bc
00000190: 7833 3cbc 6569 e93b ca94 a3bb eb52 493c
000001a0: 761e 0d3c d3e9 3dbb 4534 24bc ec76 e83a
000001b0: 4e03 e73a db9c bdbc d775 1d3c b275 f73a
000001c0: ae8a 9cbb 1890 d1ba 094a d4bb 87d6 0a3a
000001d0: 1ad3 303b 4215 983c 2bb2 4f3b df40 02bc
000001e0: c849 8f3a f1f1 61bc f1f8 b339 c5cc 283c
000001f0: 6ca4 b6bb 2521 953b 713f 95bc 62cc 61bc
0.009723849 -0.015404274 0.0018108826 0.0 -0.011944033 0.0058999816 -0.00036764558 0.0111909695
-0.0066483994 -0.010705463 -0.0019203164 -0.010737595 0.005653601 0.006283212 0.0030902256 -0.0008923693
-0.013823251 0.006048182 0.002198896 -0.006522023 -0.000901861 -0.007821722 0.0016204289 -0.012829687
0.0107807685 -0.010341446 -0.0071206572 -0.010982664 0.0013155546 0.008797802 0.001782644 -0.015886426
-0.0031782368 0.0074274098 0.01264267 -0.0019580247 -0.0006231701 0.014936621 -0.0069497353 0.0
0.005356637 -0.012610877 -0.0028033014 0.004891797 -0.0035698926 -0.010987342 0.001371062 -0.0065512178
-0.012711601 1.9467669e-05 0.005067729 0.004361628 0.0007682537 0.010625751 0.007912407 0.0040995767
-0.011639862 -0.011742502 0.0024819497 0.00031564597 -0.010680406 -0.00016714516 -0.0053262813 -0.003087469
-0.0032599606 -0.0035472575 -0.0054575205 0.009549077 -0.009320201 0.0003369762 -0.01182865 -0.003186602
0.013433777 -0.020156778 -0.007033968 0.006554755 0.0026294426 -0.006148171 -0.018018983 -0.00012126437
-0.0040086834 0.0031774647 -0.010128346 -0.0060935626 -0.0057453066 -0.02301112 0.021914348 -0.012540299
0.0058447234 -0.0025636484 0.0025398775 -0.018463168 -0.005430062 -0.013707358 -0.0024095678 0.0012957028
-0.001379896 0.0028762412 -0.006370244 -0.0121675655 -0.0114868805 0.0071231597 -0.0049921023 0.012287836
0.0086132195 -0.0028978481 -0.010022228 0.0017735637 0.0017624886 -0.023146084 0.009610615 0.001887968
-0.004777274 -0.0015988378 -0.0064785522 0.00052962493 0.0026981295 0.018564824 0.003169189 -0.007950037
0.0010932023 -0.0137905935 0.00034327016 0.010302727 -0.0055738 0.0045510703 -0.018218728 -0.013781639

sequential_1/dense_1/MatMul f4 [128, 99]
00000000: 1ff1 5abd 3342 72bd bcab b13c 7fa3 ffbc
00000010: 10aa 24be 991b 2fbd 5875 35be c0d6 883d
00000020: dbcd bf3c 4a1c 4c3e 3645 d43d 599e 1c3e
00000030: e5fe 4f3d 7096 8c3c 1010 2b3d 2596 963d
00000040: 3f27 883d 35a1 0dbd 25ca 973c e673 0abe
00000050: 2044 103e a35b 9bbd 5af3 f4bc 529e 9ebd
00000060: 2c1a 2cbd 6032 fbbc 65b3 dd3d 09e3 cf3d
00000070: db0c 1bbe 7fb1 9cbd 7266 cb3d c352 6ebd
00000080: 2dc0 9b3c c3ad 8ebd 12ae 613d 6d43 87bd
00000090: 47d3 933d d1f0 97bd 6c7a 4a3d 2ec4 0d3e
000000a0: 4e29 d5bd cbaa 59bd 7497 193e e434 893b
000000b0: 25c7 b6bd b848 95bb c5e5 173e 2f31 66bd
000000c0: 8e4d f63d 2c12 a63c 87e1 ad3d 6702 ee3c
000000d0: b54a f4bc e8f6 403c d880 183e 09b6 a83d
000000e0: e3ec ca3d 0eeb e3ba b05b debd 9181 003e
000000f0: ebbc f13d 2c04 353e 1324 1cbe 16cd 193c
00000100: f53a f6bc 4918 a73d 4259 d23d 952a 4cbd
00000110: 7425 a63a 25d3 d4bd 715e 12be 343f 4e3c
00000120: 3c45 dcbd 54c7 cf3d dfc7 d4bd 2417 c3bc
00000130: c2c1 f6bd 0d47 d4bd e64e 00be b822 6bbd
00000140: 5d75 8abb 813d 303e 422d 0a3d 9f50 ecbd
00000150: 9e3e 9ebc 272f 80bd 7e8c 2b3e 62e7 1fbd
00000160: 4f11 0bbe 016f 253d d3f6 f4bc a73d ae3d
00000170: a6a6 20bd 917d fd3d 36f1 313d 9a6a 403c
00000180: 438c 09be 140d 5bbc a528 19be 9393 bb3d
00000190: df46 063e 1a66 f4bd 142c fcbd 19bb ebbd
000001a0: 150c 173d 6c11 163e 25fd 3f3d b259 e23c
000001b0: 48a4 1bbd 4349 0abe be20 683c b2a3 0cbc
000001c0: 12b1 e3bd 2cd4 ee3d 2b5f f23d 86fc 2c3d
000001d0: 34d1 b1bd 7800 08be e900 1f3e 292f 45bd
000001e0: 0033 97bd 37c4 d03d fff8 e93d 3504 133e
000001f0: 475d 2abd 58f3 433d 3aaf 24be 67f6 afbd
00000200: ed1c bb3d b23e ba3d 3088 a7bc e421 0b3e
00000210: 3fbf bf3d 0f27 0bbd 1914 b5bd 9f74 f13d
00000220: 02e4 123e fff2 8cbd 521f 81bb ec31 01bd
00000230: 718c 0d3e c17b aebd 88d7 8a3d 25f3 e2bd
00000240: 05af 8b3d 148e 073e 4633 733d 3c2a c0bd
00000250: 9eb0 8b3c e601 633d 0f39 46bc 5481 88bd
00000260: 882e f33c 6b0b 85bd 4bdf 95bd 3c8b babd
00000270: d825 0ebe 9b4a 0dbe c048 7dbc c28d 923d
00000280: adde 8cbb 9d37 a23d 4ca7 8ebc 28d1 64bd
00000290: 73bf e1bd a77d 39bd 2413 ffbc dcc8 68bd
000002a0: 74ba 40be 4c56 ff3d 5cce 82bd 2c44 a63d
000002b0: 2f5c 2e3e 7db0 3fbb addc 3bbe dff4 36bd
000002c0: 94a1 f0bb ebfc 573d 5a72 06be 44ed 003e
000002d0: 8794 b23d 0eb2 88bd 5f01 8f3d efd0 ef3c
000002e0: b535 55bc 6632 27bd 7d44 113e 681d b43b
000002f0: ec74 cd3d 6a79 6a3c 15fb d53c 763f 1a3e
00000300: cc5b 0dbe c0a2 06bc b844 ef3c 6c2e b3bd
00000310: d825 5bbc 66ad 48bd 5c1a 0d3d 6919 f03d
00000320: 7c93 72bd 1aa7 693d e1cb 21be 3973 49bc
00000330: 93f4 18bd 17d1 203e 1eed eabc d17f d13d
00000340: bfdb ecbd 59c0 d2bc 77c3 25be d781 053e
00000350: 2b97 233c 0fe8 bd3c 9508 b2bd 65ef b33d
00000360: dfa6 00be 009e 86bb 51a1 073e 4e32 87bd
00000370: be49 0fbe 6cbd eb3d 50e4 953c 06d3 123e
00000380: 98ac b8b7 f9ab 053e 40d0 03be 56a6 f03d
00000390: 90dc afbd d597 94bc 3ff7 cbbd b3c5 abbd
000003a0: 59c0 adbd 63f3 ebbd 8d08 1cbe 2e5a cabd
000003b0: 6e7b c7bd cf26 213e 2285 983d d48e 293d
000003c0: 41ec b63d 99bd 68bd 4f84 a33d 29d3 91bd
000003d0: fa56 3c3d 14f8 913a dc8e c93d a5dd 223c
000003e0: b659 9bbd 3005 3a3d 2978 22bd 6268 e9bd
000003f0: 3fe7 aabd 8d6d 5dbd a221 84bd f704 ccbd
-0.053452607 -0.059145164 0.021688335 -0.03120589 -0.16080499 -0.04275093 -0.17720544 0.06681585
0.02341359 0.19932666 0.103647634 0.1529478 0.050780196 0.017161578 0.041763365 0.073528565
0.066481106 -0.034577567 0.018529007 -0.13520774 0.14088488 -0.07585838 -0.029901195 -0.07745041
-0.042017147 -0.03066367 0.108252324 0.101507254 -0.15141623 -0.07651042 0.09931649 -0.058184396
0.019012535 -0.06966736 0.055097647 -0.06604657 0.07218032 -0.07418979 0.049433157 0.13844368
-0.10408269 -0.053141396 0.14999181 0.0041872133 -0.089247026 -0.004555788 0.14833744 -0.05619925
0.12026511 0.020272337 0.084902816 0.02905388 -0.02982078 0.011777617 0.148929 0.082378455
0.09908464 -0.0017388777 -0.10857332 0.12549426 0.11803611 0.17677373 -0.15248136 0.009387275
-0.03005741 0.08158929 0.10270931 -0.049845297 0.0012675957 -0.10391835 -0.14293839 0.012588311
-0.10755393 0.10145441 -0.10389685 -0.023814745 -0.12048675 -0.10365114 -0.12530097 -0.057406157
-0.0042254166 0.17210962 0.033734567 -0.11538815 -0.019316968 -0.062589936 0.16752812 -0.039039023
-0.13580821 0.040389065 -0.029902851 0.08507853 -0.03922143 0.123774655 0.043442927 0.011744166
-0.13432412 -0.013369817 -0.14956911 0.09159007 0.13112973 -0.11933537 -0.12313095 -0.115102954
0.036876757 0.14655083 0.046872277 0.02763066 -0.037998468 -0.1350451 0.014167963 -0.00858395
-0.11117758 0.11661562 0.11834558 0.042233013 -0.086824805 -0.13281429 0.15527691 -0.04814068
-0.07382774 0.10193675 0.11424445 0.14357074 -0.041592862 0.047839493 -0.16082469 -0.085919194
0.091363765 0.090939894 -0.020450681 0.13587147 0.09362649 -0.033972796 -0.08841724 0.11789822
0.1434479 -0.06882285 -0.0039405013 -0.03154175 0.13823105 -0.08519698 0.067793906 -0.110815324
0.06820492 0.13237792 0.05937507 -0.093830556 0.017051991 0.055421732 -0.012098565 -0.066652924
0.029685274 -0.064963184 -0.073179804 -0.09108588 -0.13881624 -0.13797991 -0.0154592395 0.071559444
-0.004299006 0.07920764 -0.017413758 -0.05586353 -0.11022844 -0.045285847 -0.031137057 -0.05683218
-0.18821126 0.12467632 -0.06387016 0.081184715 0.17027353 -0.0029249482 -0.183459 -0.04466712
-0.0073434804 0.052731436 -0.13129559 0.1259051 0.087197356 -0.06674586 0.069826834 0.029274432
-0.013013293 -0.040819548 0.14186282 0.0054966696 0.10032067 0.014311174 0.026120702 0.15063271
-0.13804549 -0.008217514 0.029207572 -0.08749089 -0.013375722 -0.04899349 0.034448966 0.117235966
-0.059222683 0.057044126 -0.1580043 -0.012295538 -0.03734262 0.15704761 -0.02867752 0.10229457
-0.11565351 -0.025726484 -0.16187845 0.13037811 0.009984772 0.023181943 -0.08693043 0.08785895
-0.12563656 -0.0041081905 0.13245131 -0.06601392 -0.13992974 0.11510739 0.018297344 0.14338312
-2.201488e-05 0.13053884 -0.1287241 0.11750476 -0.08586991 -0.018138805 -0.09959268 -0.083873175
-0.08483953 -0.11521032 -0.15237637 -0.09880482 -0.09740339 0.1573746 0.07447268 0.041395977
0.089317806 -0.05682144 0.0798422 -0.07120354 0.045981385 0.0011136555 0.098417014 0.0099405395
-0.075854704 0.045415103 -0.039665375 -0.113968626 -0.08344888 -0.054059554 -0.064517274 -0.099618845
